…
start global adj creation  27
end global adj creation  282
start svd  282
end svd  317
total docs :  7400
total edges :  6261912
total_possible_edges :  52068408
total dropped edges :  149950
([6, 1, 2, 3, 2, 4, 1, 1, 1, 1, 1, 5, 1, 1, 1, 3, 1, 1, 1, 1, 8, 1, 1, 1, 1, 1, 1, 1, 1, 1, 1, 1, 3, 1, 1, 2, 3, 1, 3, 1, 1, 1, 1, 3, 1, 3, 1, 1, 1, 1, 1, 1, 1, 1, 2, 1, 1, 1, 1, 1, 2, 1, 1, 1, 1, 1, 8, 1, 1, 2, 2, 3, 1, 1, 1, 1, 1, 2, 1, 1, 1, 1, 2, 3, 3, 2, 1, 1, 3, 1, 1, 1, 1, 1, 1, 2, 1, 2, 1, 1, 1, 1, 1, 1, 1, 1, 1, 1, 1, 1, 1, 1, 1, 4, 4, 2, 1, 1, 14, 1, 1], [… )
total zero edge graphs :  0
Model(
  (word_embeddings): Embedding(14159, 300, padding_idx=0)
  (attention): Attention(
    (linears): ModuleList(
      (0): Linear(in_features=130, out_features=12, bias=False)
      (1): Linear(in_features=12, out_features=1, bias=False)
    )
  )
  (gcn_layers): ModuleList(
    (0): GCN(
      (linear1): Linear(in_features=300, out_features=32, bias=True)
      (gru): GRUCellMod(
        (W_ir): Linear(in_features=32, out_features=32, bias=True)
        (W_hr): Linear(in_features=32, out_features=32, bias=True)
        (W_in): Linear(in_features=32, out_features=32, bias=True)
        (W_hn): Linear(in_features=32, out_features=32, bias=True)
        (W_iz): Linear(in_features=32, out_features=32, bias=True)
        (W_hz): Linear(in_features=32, out_features=32, bias=True)
      )
    )
    (1): GCN(
      (linear1): Linear(in_features=32, out_features=32, bias=True)
      (gru): GRUCellMod(
        (W_ir): Linear(in_features=32, out_features=32, bias=True)
        (W_hr): Linear(in_features=32, out_features=32, bias=True)
        (W_in): Linear(in_features=32, out_features=32, bias=True)
        (W_hn): Linear(in_features=32, out_features=32, bias=True)
        (W_iz): Linear(in_features=32, out_features=32, bias=True)
        (W_hz): Linear(in_features=32, out_features=32, bias=True)
      )
    )
    (2): GCN(
      (linear1): Linear(in_features=32, out_features=32, bias=True)
      (gru): GRUCellMod(
        (W_ir): Linear(in_features=32, out_features=32, bias=True)
        (W_hr): Linear(in_features=32, out_features=32, bias=True)
        (W_in): Linear(in_features=32, out_features=32, bias=True)
        (W_hn): Linear(in_features=32, out_features=32, bias=True)
        (W_iz): Linear(in_features=32, out_features=32, bias=True)
        (W_hz): Linear(in_features=32, out_features=32, bias=True)
      )
    )
    (3): GCN(
      (linear1): Linear(in_features=32, out_features=32, bias=True)
      (gru): GRUCellMod(
        (W_ir): Linear(in_features=32, out_features=32, bias=True)
        (W_hr): Linear(in_features=32, out_features=32, bias=True)
        (W_in): Linear(in_features=32, out_features=32, bias=True)
        (W_hn): Linear(in_features=32, out_features=32, bias=True)
        (W_iz): Linear(in_features=32, out_features=32, bias=True)
        (W_hz): Linear(in_features=32, out_features=32, bias=True)
      )
    )
  )
  (graph_capsule): SecondaryCapsuleLayer()
  (class_capsule): SecondaryCapsuleLayer()
  (reconstruction_layer_1): Linear(in_features=16, out_features=200, bias=True)
  (reconstruction_layer_3): Linear(in_features=200, out_features=14159, bias=True)
  (dropout): Dropout(p=0.3, inplace=False)
)
loss recon 104.3683311343193 margin : 130.3450328707695
Epoch :  1 loss training:  140.78186637163162 Time :  444
accuracy train: 0.188948 val: 0.170149 test: 0.158546
max val : 0.1701492537313433 test : 0.1585456344298788 epoch : 1

loss recon 99.07865077257156 margin : 104.39175799489021
Epoch :  2 loss training:  114.29962331056595 Time :  490
…
