…
1, seed=0)
device :  cuda:0
{'dataset': 'R8', 'window_size_g': 20, 'window_size': 3, 'save_graph': True, 'retrieve_graph': False, 'embed_type': 'glove', 'pmi_c': 1}
['grain', 'crude', 'trade', 'ship', 'money-fx', 'interest', 'earn', 'acq']
got embeddings of : 7190
start adj creation  33
end adj creation  41
start global adj creation  41
total docs :  7674
total edges :  1676886
total_possible_edges :  25237334
total dropped edges :  12090
([1, 1, 1, 1, 4, 3, 2, 1, 1, 1, 1, 1, 2, 1, 2, 1, 1, 1, 1, 3, 1, 1, 1, 1, 3, 2, 4, 1, 1, 1, 1, 1], [… )
total zero edge graphs :  0
Model(
  (word_embeddings): Embedding(7690, 300, padding_idx=0)
  (attention): Attention(
    (linears): ModuleList(
      (0): Linear(in_features=130, out_features=12, bias=False)
      (1): Linear(in_features=12, out_features=1, bias=False)
    )
  )
  (gcn_layers): ModuleList(
    (0): GCN(
      (linear1): Linear(in_features=300, out_features=32, bias=True)
      (gru): GRUCellMod(
        (W_ir): Linear(in_features=32, out_features=32, bias=True)
        (W_hr): Linear(in_features=32, out_features=32, bias=True)
        (W_in): Linear(in_features=32, out_features=32, bias=True)
        (W_hn): Linear(in_features=32, out_features=32, bias=True)
        (W_iz): Linear(in_features=32, out_features=32, bias=True)
        (W_hz): Linear(in_features=32, out_features=32, bias=True)
      )
    )
    (1): GCN(
      (linear1): Linear(in_features=32, out_features=32, bias=True)
      (gru): GRUCellMod(
        (W_ir): Linear(in_features=32, out_features=32, bias=True)
        (W_hr): Linear(in_features=32, out_features=32, bias=True)
        (W_in): Linear(in_features=32, out_features=32, bias=True)
        (W_hn): Linear(in_features=32, out_features=32, bias=True)
        (W_iz): Linear(in_features=32, out_features=32, bias=True)
        (W_hz): Linear(in_features=32, out_features=32, bias=True)
      )
    )
    (2): GCN(
      (linear1): Linear(in_features=32, out_features=32, bias=True)
      (gru): GRUCellMod(
        (W_ir): Linear(in_features=32, out_features=32, bias=True)
        (W_hr): Linear(in_features=32, out_features=32, bias=True)
        (W_in): Linear(in_features=32, out_features=32, bias=True)
        (W_hn): Linear(in_features=32, out_features=32, bias=True)
        (W_iz): Linear(in_features=32, out_features=32, bias=True)
        (W_hz): Linear(in_features=32, out_features=32, bias=True)
      )
    )
    (3): GCN(
      (linear1): Linear(in_features=32, out_features=32, bias=True)
      (gru): GRUCellMod(
        (W_ir): Linear(in_features=32, out_features=32, bias=True)
        (W_hr): Linear(in_features=32, out_features=32, bias=True)
        (W_in): Linear(in_features=32, out_features=32, bias=True)
        (W_hn): Linear(in_features=32, out_features=32, bias=True)
        (W_iz): Linear(in_features=32, out_features=32, bias=True)
        (W_hz): Linear(in_features=32, out_features=32, bias=True)
      )
    )
  )
  (graph_capsule): SecondaryCapsuleLayer()
  (class_capsule): SecondaryCapsuleLayer()
  (reconstruction_layer_1): Linear(in_features=16, out_features=200, bias=True)
  (reconstruction_layer_3): Linear(in_features=200, out_features=7690, bias=True)
  (dropout): Dropout(p=0.3, inplace=False)
)
loss recon 166.05019187927246 margin : 73.49270105548203
Epoch :  1 loss training:  90.09772058576345 Time :  124
accuracy train: 0.826818 val: 0.852190 test: 0.856099
max val : 0.8521897810218978 test : 0.8560986751941526 epoch : 1

loss recon 159.40325617790222 margin : 34.805355402641
Epoch :  2 loss training:  50.74568119645119 Time :  190
…
/home/shamnast/.local/lib/python3.7/site-packages/torch/nn/functional.py:1558: UserWarning: nn.functional.tanh is deprecated. Use torch.tanh instead.
  warnings.warn("nn.functional.tanh is deprecated. Use torch.tanh instead.")
['money-fx', 'trade', 'earn', 'acq', 'interest', 'ship', 'crude', 'grain']
got embeddings of : 7190
start adj creation  33
end adj creation  40
start global adj creation  40
total docs :  7674
total edges :  1676886
total_possible_edges :  25237334
total dropped edges :  12090
([1, 4, 1, 1, 1, 1, 1, 1, 3, 1, 1, 1, 1, 1, 1, 3, 1, 1, 1, 1, 1, 1, 1, 1, 1, 1, 1, 1, 1, 3, 2, 1, 1, 4], [… )
total zero edge graphs :  0
Model(
  (word_embeddings): Embedding(7690, 300, padding_idx=0)
  (attention): Attention(
    (linears): ModuleList(
      (0): Linear(in_features=258, out_features=20, bias=False)
      (1): Linear(in_features=20, out_features=1, bias=False)
    )
  )
  (gcn_layers): ModuleList(
    (0): GCN(
      (linear1): Linear(in_features=300, out_features=64, bias=True)
      (gru): GRUCellMod(
        (W_ir): Linear(in_features=64, out_features=64, bias=True)
        (W_hr): Linear(in_features=64, out_features=64, bias=True)
        (W_in): Linear(in_features=64, out_features=64, bias=True)
        (W_hn): Linear(in_features=64, out_features=64, bias=True)
        (W_iz): Linear(in_features=64, out_features=64, bias=True)
        (W_hz): Linear(in_features=64, out_features=64, bias=True)
      )
    )
    (1): GCN(
      (linear1): Linear(in_features=64, out_features=64, bias=True)
      (gru): GRUCellMod(
        (W_ir): Linear(in_features=64, out_features=64, bias=True)
        (W_hr): Linear(in_features=64, out_features=64, bias=True)
        (W_in): Linear(in_features=64, out_features=64, bias=True)
        (W_hn): Linear(in_features=64, out_features=64, bias=True)
        (W_iz): Linear(in_features=64, out_features=64, bias=True)
        (W_hz): Linear(in_features=64, out_features=64, bias=True)
      )
    )
    (2): GCN(
      (linear1): Linear(in_features=64, out_features=64, bias=True)
      (gru): GRUCellMod(
        (W_ir): Linear(in_features=64, out_features=64, bias=True)
        (W_hr): Linear(in_features=64, out_features=64, bias=True)
        (W_in): Linear(in_features=64, out_features=64, bias=True)
        (W_hn): Linear(in_features=64, out_features=64, bias=True)
        (W_iz): Linear(in_features=64, out_features=64, bias=True)
        (W_hz): Linear(in_features=64, out_features=64, bias=True)
      )
    )
    (3): GCN(
      (linear1): Linear(in_features=64, out_features=64, bias=True)
      (gru): GRUCellMod(
        (W_ir): Linear(in_features=64, out_features=64, bias=True)
        (W_hr): Linear(in_features=64, out_features=64, bias=True)
        (W_in): Linear(in_features=64, out_features=64, bias=True)
        (W_hn): Linear(in_features=64, out_features=64, bias=True)
        (W_iz): Linear(in_features=64, out_features=64, bias=True)
        (W_hz): Linear(in_features=64, out_features=64, bias=True)
      )
    )
  )
  (graph_capsule): SecondaryCapsuleLayer()
  (class_capsule): SecondaryCapsuleLayer()
  (reconstruction_layer_1): Linear(in_features=16, out_features=200, bias=True)
  (reconstruction_layer_3): Linear(in_features=200, out_features=7690, bias=True)
  (dropout): Dropout(p=0.3, inplace=False)
)
Traceback (most recent call last):
  File "main.py", line 230, in <module>
    main()
  File "main.py", line 213, in main
    loss_accum = train(args, model, optimizer, train_graph)
  File "main.py", line 31, in train
    class_capsule_output, loss, margin_loss, reconstruction_loss, label, pred = model(batch_graph)
…
