…
got embeddings of : 8299
start adj creation  32
end adj creation  42
start global adj creation  42
total docs :  9100
total edges :  2129274
total_possible_edges :  33394964
total dropped edges :  15226
([1, 1, 1, 2, 1, 1, 1, 1, 1, 1, 1, 1, 1, 1, 1], [4.013471097891372, 3.218324749376306, 3.646779375709169, 2.0872485300177948, 4.042985158404536, 3.9869794824443963, 1.0980612131762146, 2.1140048742888315, 3.095838984193016, 3.5479517810929657, 3.7224389385543097, 3.4840279151093116, 3.9869794824443963, 2.3142292905959687, 5.146216392928941])
total zero edge graphs :  0
Model(
  (word_embeddings): Embedding(8894, 300, padding_idx=0)
  (attention): Attention(
    (linears): ModuleList(
      (0): Linear(in_features=130, out_features=12, bias=False)
      (1): Linear(in_features=12, out_features=1, bias=False)
    )
  )
  (gcn_layers): ModuleList(
    (0): GCN(
      (linear1): Linear(in_features=300, out_features=32, bias=True)
      (gru): GRUCellMod(
        (W_ir): Linear(in_features=32, out_features=32, bias=True)
        (W_hr): Linear(in_features=32, out_features=32, bias=True)
        (W_in): Linear(in_features=32, out_features=32, bias=True)
        (W_hn): Linear(in_features=32, out_features=32, bias=True)
        (W_iz): Linear(in_features=32, out_features=32, bias=True)
        (W_hz): Linear(in_features=32, out_features=32, bias=True)
      )
    )
    (1): GCN(
      (linear1): Linear(in_features=32, out_features=32, bias=True)
      (gru): GRUCellMod(
        (W_ir): Linear(in_features=32, out_features=32, bias=True)
        (W_hr): Linear(in_features=32, out_features=32, bias=True)
        (W_in): Linear(in_features=32, out_features=32, bias=True)
        (W_hn): Linear(in_features=32, out_features=32, bias=True)
        (W_iz): Linear(in_features=32, out_features=32, bias=True)
        (W_hz): Linear(in_features=32, out_features=32, bias=True)
      )
    )
    (2): GCN(
      (linear1): Linear(in_features=32, out_features=32, bias=True)
      (gru): GRUCellMod(
        (W_ir): Linear(in_features=32, out_features=32, bias=True)
        (W_hr): Linear(in_features=32, out_features=32, bias=True)
        (W_in): Linear(in_features=32, out_features=32, bias=True)
        (W_hn): Linear(in_features=32, out_features=32, bias=True)
        (W_iz): Linear(in_features=32, out_features=32, bias=True)
        (W_hz): Linear(in_features=32, out_features=32, bias=True)
      )
    )
    (3): GCN(
      (linear1): Linear(in_features=32, out_features=32, bias=True)
      (gru): GRUCellMod(
        (W_ir): Linear(in_features=32, out_features=32, bias=True)
        (W_hr): Linear(in_features=32, out_features=32, bias=True)
        (W_in): Linear(in_features=32, out_features=32, bias=True)
        (W_hn): Linear(in_features=32, out_features=32, bias=True)
        (W_iz): Linear(in_features=32, out_features=32, bias=True)
        (W_hz): Linear(in_features=32, out_features=32, bias=True)
      )
    )
  )
  (graph_capsule): SecondaryCapsuleLayer()
  (class_capsule): SecondaryCapsuleLayer()
  (reconstruction_layer_1): Linear(in_features=16, out_features=200, bias=True)
  (reconstruction_layer_3): Linear(in_features=200, out_features=8894, bias=True)
  (dropout): Dropout(p=0.3, inplace=False)
)
loss recon 197.26509165763855 margin : 121.16363074816763
Epoch :  1 loss training:  140.8901400193572 Time :  142
accuracy train: 0.712536 val: 0.692190 test: 0.721963
max val : 0.6921898928024502 test : 0.7219626168224299 epoch : 1

loss recon 189.36906731128693 margin : 73.08085190691054
Epoch :  2 loss training:  92.01775880903006 Time :  222
…
['copper', 'cpi', 'coffee', 'money-fx', 'tea', 'cocoa', 'crude', 'sugar', 'orange', 'lead', 'reserves', 'lei', 'gas', 'meal-feed', 'instal-debt', 'fuel', 'platinum', 'jobs', 'wpi', 'zinc', 'earn', 'heat', 'jet', 'ipi', 'grain', 'alum', 'pet-chem', 'carcass', 'lumber', 'gold', 'acq', 'trade', 'income', 'strategic-metal', 'potato', 'rubber', 'retail', 'ship', 'cotton', 'iron-steel', 'interest', 'housing', 'veg-oil', 'livestock', 'nat-gas', 'bop', 'tin', 'money-supply', 'dlr', 'cpu', 'gnp', 'nickel']
got embeddings of : 8299
start adj creation  34
end adj creation  43
start global adj creation  43
total docs :  9100
total edges :  2129274
total_possible_edges :  33394964
total dropped edges :  15226
([1, 1, 1, 4, 1, 1, 1, 1, 1, 1, 1, 4, 1, 1, 1, 2, 1, 1, 1, 7, 1, 2, 1, 1, 1, 1, 1, 1, 1, 1, 2, 1, 1, 1, 1, 1, 3, 1, 1, 1, 2, 1], [… )
total zero edge graphs :  0
Model(
  (word_embeddings): Embedding(8894, 300, padding_idx=0)
  (attention): Attention(
    (linears): ModuleList(
      (0): Linear(in_features=258, out_features=20, bias=False)
      (1): Linear(in_features=20, out_features=1, bias=False)
    )
  )
  (gcn_layers): ModuleList(
    (0): GCN(
      (linear1): Linear(in_features=300, out_features=64, bias=True)
      (gru): GRUCellMod(
        (W_ir): Linear(in_features=64, out_features=64, bias=True)
        (W_hr): Linear(in_features=64, out_features=64, bias=True)
        (W_in): Linear(in_features=64, out_features=64, bias=True)
        (W_hn): Linear(in_features=64, out_features=64, bias=True)
        (W_iz): Linear(in_features=64, out_features=64, bias=True)
        (W_hz): Linear(in_features=64, out_features=64, bias=True)
      )
    )
    (1): GCN(
      (linear1): Linear(in_features=64, out_features=64, bias=True)
      (gru): GRUCellMod(
        (W_ir): Linear(in_features=64, out_features=64, bias=True)
        (W_hr): Linear(in_features=64, out_features=64, bias=True)
        (W_in): Linear(in_features=64, out_features=64, bias=True)
        (W_hn): Linear(in_features=64, out_features=64, bias=True)
        (W_iz): Linear(in_features=64, out_features=64, bias=True)
        (W_hz): Linear(in_features=64, out_features=64, bias=True)
      )
    )
    (2): GCN(
      (linear1): Linear(in_features=64, out_features=64, bias=True)
      (gru): GRUCellMod(
        (W_ir): Linear(in_features=64, out_features=64, bias=True)
        (W_hr): Linear(in_features=64, out_features=64, bias=True)
        (W_in): Linear(in_features=64, out_features=64, bias=True)
        (W_hn): Linear(in_features=64, out_features=64, bias=True)
        (W_iz): Linear(in_features=64, out_features=64, bias=True)
        (W_hz): Linear(in_features=64, out_features=64, bias=True)
      )
    )
    (3): GCN(
      (linear1): Linear(in_features=64, out_features=64, bias=True)
      (gru): GRUCellMod(
        (W_ir): Linear(in_features=64, out_features=64, bias=True)
        (W_hr): Linear(in_features=64, out_features=64, bias=True)
        (W_in): Linear(in_features=64, out_features=64, bias=True)
        (W_hn): Linear(in_features=64, out_features=64, bias=True)
        (W_iz): Linear(in_features=64, out_features=64, bias=True)
        (W_hz): Linear(in_features=64, out_features=64, bias=True)
      )
    )
  )
  (graph_capsule): SecondaryCapsuleLayer()
  (class_capsule): SecondaryCapsuleLayer()
  (reconstruction_layer_1): Linear(in_features=16, out_features=200, bias=True)
  (reconstruction_layer_3): Linear(in_features=200, out_features=8894, bias=True)
  (dropout): Dropout(p=0.3, inplace=False)
)
loss recon 391.01660561561584 margin : 248.91146288486198
Epoch :  1 loss training:  288.0131233818829 Time :  181
accuracy train: 0.725974 val: 0.709035 test: 0.746885
max val : 0.7090352220520674 test : 0.7468847352024922 epoch : 1

loss recon 376.0418785214424 margin : 155.20690359943546
Epoch :  2 loss training:  192.8110916018486 Time :  304
…
